NLP/Complimenter.NLP.Classification/Models/Onnx/20230917211713.onnx (onnx, 2476 bytes, 2 tensors)

feature_log_prob f4 [153, 2]
00000000: 9e68 0cc1 bc29 0dc1 9e68 0cc1 bc29 0dc1
00000010: 3881 bbc0 bc29 0dc1 8281 88c0 bc29 0dc1
00000020: b9f3 60c0 c891 b6c0 9e68 0cc1 bc29 0dc1
00000030: 9e68 0cc1 1660 ccc0 28b2 bcc0 29bf dfc0
00000040: 9e68 0cc1 92ea dcc0 9e68 0cc1 bc29 0dc1
00000050: 9adc d7c0 7e1f dac0 9e68 0cc1 a35a d9c0
00000060: 9e68 0cc1 8200 80c0 5308 85c0 bc29 0dc1
00000070: 3d32 61c0 2092 71c0 7285 ddc0 bc29 0dc1
00000080: 5f16 86c0 bc29 0dc1 17ab e0c0 bc29 0dc1
00000090: 9e68 0cc1 fc5d e7c0 ef99 bdc0 bc29 0dc1
000000a0: 4dd1 c7c0 bc29 0dc1 4627 86c0 bc29 0dc1
000000b0: 7285 ddc0 bc29 0dc1 fae0 bfc0 bc29 0dc1
000000c0: fbe9 bbc0 bc29 0dc1 9e68 0cc1 bc29 0dc1
000000d0: 9e68 0cc1 fc5d e7c0 9e68 0cc1 bc29 0dc1
000000e0: c104 d8c0 bc29 0dc1 e7a0 e4c0 a8d7 82c0
000000f0: 7b0f dec0 be95 92c0 4b2a d9c0 bc29 0dc1
00000100: 15be cec0 4fc5 81c0 9e68 0cc1 bb2f a1c0
00000110: 1824 77c0 5ec3 d8c0 60bf a0c0 f999 68c0
00000120: 979d dbc0 bc29 0dc1 d407 89c0 c67b 88c0
00000130: a619 54c0 bfcd 69c0 9e68 0cc1 bc29 0dc1
00000140: 9e68 0cc1 3bcd 6cc0 229a e0c0 bc29 0dc1
00000150: bb7f e4c0 4e5a d6c0 397c 88c0 adf7 c8c0
00000160: d16b cac0 664e 74c0 36ea 81c0 edf9 e4c0
00000170: eb70 d2c0 bc29 0dc1 9e68 0cc1 bc29 0dc1
00000180: 9e68 0cc1 9d36 70c0 1824 77c0 5ec3 d8c0
00000190: 669e d9c0 147d dec0 9e68 0cc1 17d8 82c0
000001a0: 3881 bbc0 bc29 0dc1 7493 b6c0 5d16 7fc0
000001b0: 9e68 0cc1 d479 d7c0 ccf5 e9c0 9f6b 76c0
000001c0: c1f6 d2c0 f591 60c0 9e68 0cc1 bc29 0dc1
000001d0: e5b0 c0c0 b2ad 86c0 9e68 0cc1 bc29 0dc1
000001e0: 6762 85c0 99ec d0c0 229a e0c0 bc29 0dc1
000001f0: bdf7 53c0 d5e0 90c0 9f5f a3c0 9e94 61c0
00000200: ab79 e2c0 2228 e5c0 480e 2ec0 05a6 52c0
00000210: 97a6 59c0 bffe 7dc0 9e68 0cc1 45c4 d5c0
00000220: 3241 dec0 bc29 0dc1 9adc d7c0 7e1f dac0
00000230: 9ac9 b3c0 bc29 0dc1 bb59 82c0 bc29 0dc1
00000240: 9e68 0cc1 3c6a 82c0 9e68 0cc1 fc5d e7c0
00000250: 9e68 0cc1 fad3 7cc0 ed14 67c0 044e b5c0
00000260: 9e68 0cc1 bc29 0dc1 d564 bbc0 bc29 0dc1
00000270: 9e68 0cc1 bc29 0dc1 9e68 0cc1 39a6 e3c0
00000280: 9e68 0cc1 bc29 0dc1 e8a9 86c0 dd90 75c0
00000290: 9e68 0cc1 9fb6 cbc0 7ed7 82c0 6c08 b6c0
000002a0: 8567 dac0 c317 c8c0 fe3b 88c0 bc29 0dc1
000002b0: 3e78 c6c0 bc29 0dc1 6abd 88c0 86a3 cfc0
000002c0: 7ed2 84c0 bc29 0dc1 3478 cfc0 bc29 0dc1
000002d0: 9e68 0cc1 bc29 0dc1 7709 80c0 bc29 0dc1
000002e0: 3241 dec0 bc29 0dc1 fd03 4dc0 62ea 7ac0
000002f0: 9c77 46c0 e9a6 51c0 b4cb e1c0 bc29 0dc1
00000300: 9e68 0cc1 bc29 0dc1 17ab e0c0 bc29 0dc1
00000310: 7ed2 84c0 bc29 0dc1 e7af d6c0 bc29 0dc1
00000320: 41da e5c0 a8d7 82c0 b4cb e1c0 bc29 0dc1
00000330: 4b2a d9c0 bc29 0dc1 2c52 b3c0 4708 dbc0
00000340: 6d56 d3c0 bc29 0dc1 3d14 6cc0 54be 89c0
00000350: 9e68 0cc1 39a6 e3c0 d871 d0c0 bc29 0dc1
00000360: 95f4 e0c0 bc29 0dc1 9e68 0cc1 bc29 0dc1
00000370: 9e68 0cc1 bc29 0dc1 6643 b4c0 96f9 70c0
00000380: ddc1 86c0 f4c0 75c0 3651 dac0 e480 b5c0
00000390: af18 dac0 bc29 0dc1 7b0f dec0 be95 92c0
000003a0: 6399 e3c0 b55e d5c0 9e68 0cc1 bc29 0dc1
000003b0: 9e68 0cc1 bc29 0dc1 78ee c8c0 c54a 8ac0
000003c0: e861 c2c0 bc29 0dc1 7957 62c0 2a4f e7c0
000003d0: 229a e0c0 bc29 0dc1 2bdb d3c0 2166 7ec0
000003e0: 6677 e0c0 83d7 87c0 9e68 0cc1 bc29 0dc1
000003f0: 51ea 84c0 0b9a c6c0 afe2 c0c0 458d 88c0
-8.775541 -8.822689 -8.775541 -8.822689 -5.859524 -8.822689 -4.265809 -8.822689
-3.5148757 -5.7052956 -8.775541 -8.822689 -8.775541 -6.3867292 -5.8967476 -6.992085
-8.775541 -6.903634 -8.775541 -8.822689 -6.745679 -6.8163443 -8.775541 -6.792314
-8.775541 -4.000062 -4.157266 -8.822689 -3.5186913 -3.7745438 -6.9225397 -8.822689
-4.190231 -8.822689 -7.020885 -8.822689 -8.775541 -7.2302227 -5.9250407 -8.822689
-6.2442994 -8.822689 -4.192294 -8.822689 -6.9225397 -8.822689 -5.996213 -8.822689
-5.872312 -8.822689 -8.775541 -8.822689 -8.775541 -7.2302227 -8.775541 -8.822689
-6.7505803 -8.822689 -7.1446414 -4.088825 -6.9393897 -4.580779 -6.7864127 -8.822689
-6.4607034 -4.0553355 -8.775541 -5.0370765 -3.861578 -6.7738485 -5.023361 -3.6343977
-6.862987 -8.822689 -4.2822056 -4.265109 -3.3140655 -3.6531827 -8.775541 -8.822689
-8.775541 -3.7000263 -7.018815 -8.822689 -7.140592 -6.6985235 -4.265164 -6.280234
-6.325661 -3.817285 -4.05984 -7.1555085 -6.576284 -8.822689 -8.775541 -8.822689
-8.775541 -3.7533333 -3.861578 -6.7738485 -6.8005857 -6.9527683 -8.775541 -4.088878
-5.859524 -8.822689 -5.7054996 -3.98574 -8.775541 -6.7336216 -7.3112545 -3.8503187
-6.5926213 -3.5089085 -8.775541 -8.822689 -6.0215936 -4.208703 -8.775541 -8.822689
-4.168262 -6.5288815 -7.018815 -8.822689 -3.3119957 -4.5274453 -5.1054225 -3.5246959
-7.077352 -7.161149 -2.7196217 -3.291383 -3.4007928 -3.9686735 -8.775541 -6.6802087
-6.9454584 -8.822689 -6.745679 -6.8163443 -5.6183596 -8.822689 -4.0734534 -8.822689
-8.775541 -4.075468 -8.775541 -7.2302227 -8.775541 -3.950438 -3.6106522 -5.6657734
-8.775541 -8.822689 -5.8560586 -8.822689 -8.775541 -8.822689 -8.775541 -7.114041
-8.775541 -8.822689 -4.2082405 -3.8369668 -8.775541 -6.3660426 -4.088805 -5.688528
-6.8251367 -6.2529006 -4.2573233 -8.822689 -6.202178 -8.822689 -4.273122 -6.4887114
-4.150695 -8.822689 -6.483423 -8.822689 -8.775541 -8.822689 -4.0011554 -8.822689
-6.9454584 -8.822689 -3.2033684 -3.9205556 -3.1010504 -3.2758124 -7.056116 -8.822689
-8.775541 -8.822689 -7.020885 -8.822689 -4.150695 -8.822689 -6.7089725 -8.822689
-7.1828923 -4.088825 -7.056116 -8.822689 -6.7864127 -8.822689 -5.6037807 -6.8447604
-6.6043 -8.822689 -3.6887352 -4.3044834 -8.775541 -7.114041 -6.513897 -8.822689
-7.029856 -8.822689 -8.775541 -8.822689 -8.775541 -8.822689 -5.6332273 -3.7652335
-4.211165 -3.839902 -6.8224134 -5.6719837 -6.815513 -8.822689 -6.9393897 -4.580779
-7.112474 -6.667811 -8.775541 -8.822689 -8.775541 -8.822689 -6.27911 -4.321627
-6.0744514 -8.822689 -3.536589 -7.2284136 -7.018815 -8.822689 -6.620504 -3.9749835
-7.014575 -4.2450576 -8.775541 -8.822689 -4.153603 -6.206304 -6.0276713 -4.267245

class_log_prior f4 [1, 2]
00000000: 1872 31bf 1872 31bf
-0.6931472 -0.6931472
